…
[run_dnn] labels scale:         {'shift': array([[-0.19046102, -0.39422134]], dtype=float32), 'mult': array([[1.1864839, 1.5862216]], dtype=float32)}
[create_dataset] Create new dataset from tensor slices
[create_dataset] Shuffle the dataset, buffer size 1000 random seed 123
[create_dataset] Batch the dataset, batch size 32
[run_dnn] Model summary
Model: "convNN"
_________________________________________________________________
Layer (type)                 Output Shape              Param #   
=================================================================
input_1 (InputLayer)         [(None, 1000, 1)]         0         
_________________________________________________________________
conv1d (Conv1D)              (None, 499, 8)            32        
_________________________________________________________________
activation (Activation)      (None, 499, 8)            0         
_________________________________________________________________
average_pooling1d (AveragePo (None, 249, 8)            0         
_________________________________________________________________
conv1d_1 (Conv1D)            (None, 124, 16)           400       
_________________________________________________________________
activation_1 (Activation)    (None, 124, 16)           0         
_________________________________________________________________
average_pooling1d_1 (Average (None, 62, 16)            0         
_________________________________________________________________
conv1d_2 (Conv1D)            (None, 30, 32)            1568      
_________________________________________________________________
activation_2 (Activation)    (None, 30, 32)            0         
_________________________________________________________________
flatten (Flatten)            (None, 960)               0         
_________________________________________________________________
dense (Dense)                (None, 32)                30752     
_________________________________________________________________
activation_3 (Activation)    (None, 32)                0         
_________________________________________________________________
dense_1 (Dense)              (None, 32)                1056      
_________________________________________________________________
activation_4 (Activation)    (None, 32)                0         
_________________________________________________________________
dense_2 (Dense)              (None, 2)                 66        
_________________________________________________________________
activation_5 (Activation)    (None, 2)                 0         
=================================================================
Total params: 33,874
Trainable params: 33,874
Non-trainable params: 0
_________________________________________________________________
[run_dnn] Train
Epoch 1/200
32/32 - 1s - loss: 0.0277
Epoch 2/200
32/32 - 0s - loss: 0.0149
Epoch 3/200
32/32 - 0s - loss: 0.0108
Epoch 4/200
32/32 - 0s - loss: 0.0073
Epoch 5/200
32/32 - 0s - loss: 0.0057
…
